…
activation='sigmoid')(hidden_2)\n","\n","autoencoder = Model(input_img, output_img)\n","autoencoder.compile(optimizer='adam', loss='binary_crossentropy',metrics=[\"accuracy\"])\n","\n","autoencoder.summary()\n","\n","history = autoencoder.fit(x_train, x_train, epochs=10)"],"execution_count":0,"outputs":[{"output_type":"stream","text":["Model: \"model_3\"\n","_________________________________________________________________\n","Layer (type)                 Output Shape              Param #   \n","=================================================================\n","input_3 (InputLayer)         (None, 784)               0         \n","_________________________________________________________________\n","dense_72 (Dense)             (None, 128)               100480    \n","_________________________________________________________________\n","dense_73 (Dense)             (None, 64)                8256      \n","_________________________________________________________________\n","dense_74 (Dense)             (None, 32)                2080      \n","_________________________________________________________________\n","dense_75 (Dense)             (None, 64)                2112      \n","_________________________________________________________________\n","dense_76 (Dense)             (None, 128)               8320      \n","_________________________________________________________________\n","dense_77 (Dense)             (None, 784)               101136    \n","=================================================================\n","Total params: 222,384\n","Trainable params: 222,384\n","Non-trainable params: 0\n","_________________________________________________________________\n","Epoch 1/10\n","60000/60000 [==============================] - 10s 159us/step - loss: 0.1605 - accuracy: 0.8025\n","Epoch 2/10\n","60000/60000 [========================
…
